…
nvolutional layer\nmodel1 = vgg_1_block()\n\n# Print a summary of the model's architecture\nmodel1.summary()\n\n# Define a log directory for TensorBoard\nlog_dir = 'log_stats/vgg_1_block'\n\n# Define the TensorBoard callback with update_freq='batch'\ntensorboard_callback = tf.keras.callbacks.TensorBoard(log_dir=log_dir, update_freq='batch')\n\nModel: \"vgg_block_1\"\n_________________________________________________________________\n Layer (type)                Output Shape              Param #   \n=================================================================\n conv2d (Conv2D)             (None, 128, 128, 64)      1792      \n                                                                 \n max_pooling2d (MaxPooling2D  (None, 64, 64, 64)       0         \n )                                                               \n                                                                 \n flatten (Flatten)           (None, 262144)            0         \n                                                                 \n dense (Dense)               (None, 128)               33554560  \n                                                                 \n dense_1 (Dense)             (None, 1)                 129       \n                                                                 \n=================================================================\nTotal params: 33,556,481\nTrainable params: 33,556,481\nNon-trainable params: 0\n_________________________________________________________________\n\n\n2023-04-19 14:38:27.877910: W tensorflow/core/common_runtime/gpu/gpu_device.cc:1956] Cannot dlopen some G
…
_3_block function\nmodel2 = vgg_3_block()\n\n# Print a summary of the model's architecture\nmodel2.summary()\n\n# Define a log directory for TensorBoard\nlog_dir = 'log_stats/vgg_3_block'\n\n# Define the TensorBoard callback with update_freq='batch'\ntensorboard_callback = tf.keras.callbacks.TensorBoard(log_dir=log_dir, update_freq='batch')\n\nModel: \"vgg_block_3\"\n_________________________________________________________________\n Layer (type)                Output Shape              Param #   \n=================================================================\n conv2d_1 (Conv2D)           (None, 128, 128, 64)      1792      \n                                                                 \n max_pooling2d_1 (MaxPooling  (None, 64, 64, 64)       0         \n 2D)                                                             \n                                                                 \n conv2d_2 (Conv2D)           (None, 64, 64, 128)       73856     \n                                                                 \n max_pooling2d_2 (MaxPooling  (None, 32, 32, 128)      0         \n 2D)                                                             \n                                                                 \n conv2d_3 (Conv2D)           (None, 32, 32, 256)       295168    \n                                                                 \n max_pooling2d_3 (MaxPooling  (None, 16, 16, 256)      0         \n 2D)                                                             \n                                                                 \n flatten_1 (Flatten)         (None, 65536)             0         \n                                                                 \n dense_2 (Dense)             (None, 128)               8388736   \n                                                                 \n dense_3 (Dense)             (None, 1)                 129       \n                                                                 \n=================================================================\nTotal params: 8,759,681\nTrainable params: 8,759,681\nNon-trainable params: 0\n_________________________________________________________________\n\n\n\n# Compile the model with 'adam' optimizer, 'binary_crossentropy' loss function, and 'accuracy' metric\nmo
…
og directory for TensorBoard\nlog_dir = 'log_stats/vgg_16'\n\n# Define the TensorBoard callback with update_freq='batch'\ntensorboard_callback = tf.keras.callbacks.TensorBoard(log_dir=log_dir, update_freq='batch')\n\nModel: \"vgg_16\"\n_________________________________________________________________\n Layer (type)                Output Shape              Param #   \n=================================================================\n input_1 (InputLayer)        [(None, 128, 128, 3)]     0         \n                                                                 \n block1_conv1 (Conv2D)       (None, 128, 128, 64)      1792      \n                                                                 \n block1_conv2 (Conv2D)       (None, 128, 128, 64)      36928     \n                                                                 \n block1_pool (MaxPooling2D)  (None, 64, 64, 64)        0         \n                                                                 \n block2_conv1 (Conv2D)       (None, 64, 64, 128)       73856     \n                                                                 \n block2_conv2 (Conv2D)       (None, 64, 64, 128)       147584    \n                                                                 \n block2_pool (MaxPooling2D)  (None, 32, 32, 128)       0         \n                                                                 \n block3_conv1 (Conv2D)       (None, 32, 32, 256)       295168    \n                                                                 \n block3_conv2 (Conv2D)       (None, 32, 32, 256)       590080    \n                                                                 \n block3_conv3 (Conv2D)       (None, 32, 32, 256)       590080    \n                                                                 \n block3_pool (MaxPooling2D)  (None, 16, 16, 256)       0         \n                                                                 \n block4_conv1 (Conv2D)       (None, 16, 16, 512)       1180160   \n                                                                 \n block4_conv2 (Conv2D)       (None, 16, 16, 512)       2359808   \n                                                                 \n block4_conv3 (Conv2D)       (None, 16, 16, 512)       2359808   \n                                                                 \n block4_pool (MaxPooling2D)  (None, 8, 8, 512)         0         \n                                                                 \n block5_conv1 (Conv2D)       (None, 8, 8, 512)         2359808   \n                                                                 \n block5_conv2 (Conv2D)       (None, 8, 8, 512)         2359808   \n                                                                 \n block5_conv3 (Conv2D)       (None, 8, 8, 512)         2359808   \n                                                                 \n block5_pool (MaxPooling2D)  (None, 4, 4, 512)         0         \n                                                                 \n flatten_3 (Flatten)         (None, 8192)              0         \n                                                                 \n dense_6 (Dense)             (None, 128)               1048704   \n                                                                 \n dense_7 (Dense)             (None, 1)                 129       \n                                                                 \n=================================================================\nTotal params: 15,763,521\nTrainable params: 1,048,833\nNon-trainable params: 14,714,688\n_________________________________________________________________\n\n\n\n# Compile the model with 'adam' optimizer, 'binary_crossentropy' loss function, and 'accuracy' 
…
    return model\n\nmodel5 = create_mlp_18()\n# Print the model summary to see the number of parameters\nmodel5.summary()\n\n# Define a log directory for TensorBoard\nlog_dir = 'log_stats/mlp_18'\n\n# Define the TensorBoard callback with update_freq='batch'\ntensorboard_callback = tf.keras.callbacks.TensorBoard(log_dir=log_dir, update_freq='batch')\n\nModel: \"MLP\"\n_________________________________________________________________\n Layer (type)                Output Shape              Param #   \n=================================================================\n flatten_4 (Flatten)         (None, 49152)             0         \n                                                                 \n dense_8 (Dense)             (None, 256)               12583168  \n                                                                 \n dense_9 (Dense)             (None, 4096)              1052672   \n                                                                 \n dense_10 (Dense)            (None, 1024)              4195328   \n                                                                 \n dense_11 (Dense)            (None, 1)                 1025      \n                                                                 \n=================================================================\nTotal params: 17,832,193\nTrainable params: 17,832,193\nNon-trainable params: 0\n_________________________________________________________________\n\n\n\n# Compile the model with 'adam' optimizer, 'binary_crossentropy' loss function, and 'accuracy' metric\nm
…
.cc:83] Allocation of 491520000 exceeds 10% of free system memory.\n2023-04-19 14:55:06.543298: W tensorflow/tsl/framework/cpu_allocator_impl.cc:83] Allocation of 491520000 exceeds 10% of free system memory.\n2023-04-19 14:55:06.622387: W tensorflow/tsl/framework/cpu_allocator_impl.cc:83] Allocation of 491520000 exceeds 10% of free system memory.\n\n\nModel: \"MLP\"\n_________________________________________________________________\n Layer (type)                Output Shape              Param #   \n=================================================================\n flatten_5 (Flatten)         (None, 49152)             0         \n                                                                 \n dense_12 (Dense)            (None, 2500)              122882500 \n                                                                 \n dense_13 (Dense)            (None, 2500)              6252500   \n                                                                 \n dense_14 (Dense)            (None, 2500)              6252500   \n                                                                 \n dense_15 (Dense)            (None, 1)                 2501      \n                                                                 \n=================================================================\nTotal params: 135,390,001\nTrainable params: 135,390,001\nNon-trainable params: 0\n_________________________________________________________________\n\n\n\n# Compile the model with 'adam' optimizer, 'binary_crossentropy' loss function, and 'accuracy' metric\
…
